…
                    'use_sdpa': True,
                    'use_silu': False,
                    'write_tag': 'jepa'},
    'resume_checkpoint': False,
    'tag': 'calcium_oct_linear_probe_aug_resample_fold1',
    'tasks_per_node': 8}
Random port is ... 47756
INFO:root:Running... (rank: 0/1)
INFO:root:Running evaluation: video_segmentation
INFO:evals.video_segmentation.eval:Initialized (rank/world-size) 0/1
INFO:evals.video_segmentation.eval:Loading pretrained model from /home/gridsan/nchutisilp/projects/jepa/pretrain_models/jepa-latest.pth.tar
VisionTransformer(
  (patch_embed): PatchEmbed3D(
    (proj): Conv3d(3, 1024, kernel_size=(2, 16, 16), stride=(2, 16, 16))
  )
  (blocks): ModuleList(
    (0-23): 24 x Block(
      (norm1): LayerNorm((1024,), eps=1e-06, elementwise_affine=True)
      (attn): Attention(
        (qkv): Linear(in_features=1024, out_features=3072, bias=True)
        (attn_drop): Dropout(p=0.0, inplace=False)
        (proj): Linear(in_features=1024, out_features=1024, bias=True)
        (proj_drop): Dropout(p=0.0, inplace=False)
      )
      (norm2): LayerNorm((1024,), eps=1e-06, elementwise_affine=True)
      (mlp): MLP(
        (fc1): Linear(in_features=1024, out_features=4096, bias=True)
        (act): GELU(approximate='none')
        (fc2): Linear(in_features=4096, out_features=1024, bias=True)
        (drop): Dropout(p=0.0, inplace=False)
      )
    )
  )
  (norm): LayerNorm((1024,), eps=1e-06, elementwise_affine=True)
)
INFO:evals.video_segmentation.eval:loaded pretrained model with msg: <All keys matched successfully>
INFO:evals.video_segmentation.eval:loaded pretrained encoder from epoch: 300
 path: /home/gridsan/nchutisilp/projects/jepa/pretrain_models/jepa-latest.pth.tar
AttentiveSegmentator(
  (decoder_embed): Linear(in_features=1024, out_features=768, bias=True)
  (decoder_blocks): ModuleList()
  (norm): LayerNorm((768,), eps=1e-05, elementwise_affine=True)
  (decoder_pred): Linear(in_features=768, out_features=1024, bias=True)
)
=====================================================================================================================

self.patchesTrainSet.iterations_per_epoch // self.batch_size 5

=====================================================================================================================
INFO:evals.video_segmentation.eval:Dataloader created... iterations per epoch: 5
…
